…
                    nn.ReLU(),\n","                       \n","                      nn.Linear(64, 10)\n","\n","                      )\n","model1"],"metadata":{"colab":{"base_uri":"https://localhost:8080/"},"id":"FoL-CcoyrjdL","executionInfo":{"status":"ok","timestamp":1641292997454,"user_tz":-540,"elapsed":243,"user":{"displayName":"신영서","photoUrl":"https://lh3.googleusercontent.com/a/default-user=s64","userId":"12027250976685881116"}},"outputId":"7b758bd5-3d65-49f7-be82-721104f406b5"},"execution_count":29,"outputs":[{"output_type":"execute_result","data":{"text/plain":["Sequential(\n","  (0): Linear(in_features=784, out_features=512, bias=True)\n","  (1): ReLU()\n","  (2): Linear(in_features=512, out_features=256, bias=True)\n","  (3): ReLU()\n","  (4): Linear(in_features=256, out_features=128, bias=True)\n","  (5): ReLU()\n","  (6): Linear(in_features=128, out_features=64, bias=True)\n","  (7): ReLU()\n","  (8): Linear(in_features=64, out_features=10, bias=True)\n",")"]},"metadata":{},"execution_count":29}]},{"cell_type":"code","source":["# 7층\n","model2 = nn.Sequential(nn.Linear(784,512),\n","                      nn.ReLU(),\n","                      \n","                      nn.Linear(512,256),\n","                      nn.ReLU(),\n","                       \n","                      nn.Linear(256,128),\n"," 
…
               nn.ReLU(),\n","                       \n","                      nn.Linear(16, 10)\n","                      )\n","\n","\n","model2"],"metadata":{"colab":{"base_uri":"https://localhost:8080/"},"id":"O-E8LNYur_lx","executionInfo":{"status":"ok","timestamp":1641293069087,"user_tz":-540,"elapsed":246,"user":{"displayName":"신영서","photoUrl":"https://lh3.googleusercontent.com/a/default-user=s64","userId":"12027250976685881116"}},"outputId":"825c7eb2-0f30-4adb-ed00-ba635c8903f2"},"execution_count":30,"outputs":[{"output_type":"execute_result","data":{"text/plain":["Sequential(\n","  (0): Linear(in_features=784, out_features=512, bias=True)\n","  (1): ReLU()\n","  (2): Linear(in_features=512, out_features=256, bias=True)\n","  (3): ReLU()\n","  (4): Linear(in_features=256, out_features=128, bias=True)\n","  (5): ReLU()\n","  (6): Linear(in_features=128, out_features=64, bias=True)\n","  (7): ReLU()\n","  (8): Linear(in_features=64, out_features=32, bias=True)\n","  (9): ReLU()\n","  (10): Linear(in_features=32, out_features=16, bias=True)\n","  (11): ReLU()\n","  (12): Linear(in_features=16, out_features=10, bias=True)\n",")"]},"metadata":{},"execution_count":30}]},{"cell_type":"markdown","source":["# loss function & optimizer"],"metadata":{"id":"hMs3HyEotaLU"}},{"cell_type":"code","source":["# 비용함수와 옵티마이저 정의\n","criterion = nn.CrossEntropyLoss().to(device) # 내부적으로 소프트맥스 함수를 포함하고 있음\n","optimizer = torch.optim.Adam(linear.parameters(),lr=0.01)"],"metadata":{"id":"bsTkW
…
